…
adas: 0.8% (10 casos)"
  },
  {
    "objectID": "eda_final.html#modelamiento-lstm",
    "href": "eda_final.html#modelamiento-lstm",
    "title": "Informe",
    "section": "5.3 Modelamiento LSTM",
    "text": "5.3 Modelamiento LSTM\n\n\nShapes:\nX_seq: (1270, 30, 9)\nX_static: (1270, 18)\ny: (1270, 4)\n\n\n\n\nModel: \"functional_1\"\n\n\n\n┏━━━━━━━━━━━━━━━━━━━━━┳━━━━━━━━━━━━━━━━━━━┳━━━━━━━━━━━━┳━━━━━━━━━━━━━━━━━━━┓\n┃ Layer (type)        ┃ Output Shape      ┃    Param # ┃ Connected to      ┃\n┡━━━━━━━━━━━━━━━━━━━━━╇━━━━━━━━━━━━━━━━━━━╇━━━━━━━━━━━━╇━━━━━━━━━━━━━━━━━━━┩\n│ input_layer_2       │ (None, 30, 9)     │          0 │ -                 │\n│ (InputLayer)        │                   │            │                   │\n├─────────────────────┼───────────────────┼────────────┼───────────────────┤\n│ input_layer_3       │ (None, 18)        │          0 │ -                 │\n│ (InputLayer)        │                   │            │                   │\n├─────────────────────┼───────────────────┼────────────┼───────────────────┤\n│ lstm_1 (LSTM)       │ (None, 64)        │     18,944 │ input_layer_2[0]… │\n├─────────────────────┼───────────────────┼────────────┼───────────────────┤\n│ dense_4 (Dense)     │ (None, 32)        │        608 │ input_layer_3[0]… │\n├─────────────────────┼───────────────────┼────────────┼───────────────────┤\n│ dropout_2 (Dropout) │ (None, 64)        │          0 │ lstm_1[0][0]      │\n├─────────────────────┼───────────────────┼────────────┼───────────────────┤\n│ dropout_3 (Dropout) │ (None, 32)        │          0 │ dense_4[0][0]     │\n├─────────────────────┼───────────────────┼────────────┼───────────────────┤\n│ concatenate_1       │ (None, 96)        │          0 │ dropout_2[0][0],  │\n│ (Concatenate)       │                   │            │ dropout_3[0][0]   │\n├─────────────────────┼───────────────────┼────────────┼───────────────────┤\n│ dense_5 (Dense)     │ (None, 64)        │      6,208 │ concatenate_1[0]… │\n├─────────────────────┼───────────────────┼────────────┼───────────────────┤\n│ dense_6 (Dense)     │ (None, 32)        │      2,080 │ dense_5[0][0]     │\n├─────────────────────┼───────────────────┼────────────┼───────────────────┤\n│ dense_7 (Dense)     │ (None, 4)         │        132 │ dense_6[0][0]     │\n└─────────────────────┴───────────────────┴────────────┴───────────────────┘\n\n\n\n Total params: 27,972 (109.27 KB)\n\n\n\n Trainable params: 27,972 (109.27 KB)\n\n\n\n Non-trainable params: 0 (0.00 B)\n\n\n\n\n\n\nEpoch 1/100\n\n\n 1/32 ━━━━━━━━━━━━━━━━━━━━ 31s 1s/step - loss: 1.1895 - mae: 0.8331\n\b\b\b\b\b\b\b\b\b\b\b\b\b\b\b\b\b\b\b\b\b\b\b\b\b\b\b\b\b\b\b\b\b\b\b\b\
…
